smart-traffic-ml/model.pth (torch, 33529 bytes, 16 tensors)

weight f4 [64, 6, 3]
00000000: c5ee a9bd d4a6 70bd abaa 523d 55c5 26be
00000010: 24d2 b1bd 1a8f 5bbe 6c58 8b3d aae5 52be
00000020: 656d dfbd 853e e53d 9261 08be e0dc d0bd
00000030: 52de 13be d9a1 253c eff0 003e 8fea 3b3e
00000040: a987 a53d cae2 81be 3a54 35bc 6373 69be
00000050: 0e9a 81bd dffc 0f3e 09b9 0d3e 3a05 3dbc
00000060: e419 c8bd de61 66be 905f fd3d ebd5 efbd
00000070: 6cb3 3b3e e9bb 5bbe a8d2 8bbd ce9a 0d3d
00000080: 1775 1cbc 8456 3c3c 9ec8 573e cb6a 533e
00000090: a002 24be 0a40 2e3e 1029 48be f334 113d
000000a0: a5ef 4b3d 4de2 823d 2c4d e0bd b0c3 af3d
000000b0: c2c3 35be 8b2c 65be 3ee7 7cbc af27 3bbe
000000c0: b283 bcbd 9e07 b4bd 50d7 36be 4705 c33d
000000d0: 673a c23d 68d3 813d 3064 ec3d e1c3 4b3e
000000e0: 0007 9f3c 96d8 10be 9ada 633e 8135 183e
000000f0: fd63 323e 6034 9d3e 76d9 2fbe 8b56 29be
00000100: fe02 1abe 8f3d 693e 9722 eb3d 4d71 703e
00000110: 3e6a 47bd ccda 543e 5d6f d13d 9c34 1a3e
00000120: f134 1e3e 2883 02be 63e9 5abe b52a 623e
00000130: fb2f 033c f5ae 72bd 5e85 55bd 657a 3b3d
00000140: d405 af3d fb56 80bd 1f3b 3cbe 3c1f 323d
00000150: 6389 043e 3ab7 f73d 6b90 0a3d ebac 2bbe
00000160: 9f37 363e ae41 683e f9fd 11be eca9 e0bb
00000170: 5bf0 20bd 8dd3 763c 498a 4abd 4ba2 a5bc
00000180: 01f8 18be cb3f 00be 0799 3a3e a75d 7e3e
00000190: 5fbc 553e b930 0c3c 6a5b a73d d2b8 86be
000001a0: 2052 e9bb 3d1e 34be ed77 e6bd 3fe6 8f3c
000001b0: b8a9 67be 2a8b 063e 26d7 2a3e 45d6 683d
000001c0: 0479 98bd f2db 97be 40ae 5c3d ee08 11be
000001d0: 410f c83d b47a 4abe df91 513d c539 62bd
000001e0: d9e1 8dbd 38f2 90bd 6acc 223e 769f 913d
000001f0: 6cd0 243e 85a1 6cbd 35ff b73d 7186 41bc
00000200: 6c35 b7bc 9765 b3bc ae60 e03a 3bd0 34be
00000210: b0c7 a3bb 8e85 3cbd 4022 4cbe bc3e 90bc
00000220: f11e 093e 0ea8 57be feaa 4fbe c7c8 353e
00000230: 4f4a 19be 5a08 2abe 1580 34be be98 31bd
00000240: c749 12be 5dd4 12bd e20e 98be 48b9 bc3d
00000250: c586 53be 9641 0abe 901e 0fbe b755 67bd
00000260: 8015 933e 704e 34be ca1b 0f3e 3a83 543d
00000270: a1a8 be3d 2734 993e f9f5 293e 27e1 b93d
00000280: f65b a3bd b164 f4bc 0445 e43d 3a44 ce3d
00000290: 9780 1b3e 5369 de3d f5d7 66bc 08e3 a03d
000002a0: ca17 d13b ac92 813e eb01 4c3e cfc5 9f3e
000002b0: 38ad 3fbe 330c afbd be47 babd 900d 8cbe
000002c0: b169 1dbd f86a 973d 1095 8f3d c00a 653d
000002d0: 5e85 383b 6c90 88be 499e 3fbe 2b5f d1bd
000002e0: 171a 663e 9809 563e a196 0d3e 1679 36bc
000002f0: a065 59be 4ef5 2f3e d814 2e3d 918a 08be
00000300: 44e3 9abc 0f38 2abe 06f8 413d 3061 183e
00000310: 6610 e9bd 790f 873d 885b 03be 868c aabd
00000320: 5e69 273e 2ec7 393d 9b27 243d 0d1c b93d
00000330: 9c14 153d fea6 3d3e 771e 363e 15ea febd
00000340: fb34 2a3e feb7 9dbd dcf5 4bbe 4a37 293e
00000350: aa2e 14bd 3a37 c0bd a6b7 59be 8f41 7fbc
00000360: ba8c 0e3e 3479 ddbd 6716 bc3d 7614 113e
00000370: 4061 50bd 1607 873d 9634 48be 1b95 03bd
00000380: 5c1f ad3d a972 61bd 0c67 96be 63e1 72be
00000390: f32d bebd b43e 0c3e be84 0cbe 25b3 713d
000003a0: 36df 6abe 8ce0 48bd 2863 a2bc d1d0 0dbe
000003b0: 1767 1b3d 4add b9bd f2ec cebd 4236 40be
000003c0: eaa6 063e 35bc 0e3d 8eb0 a1bd 0ef7 02be
000003d0: 64a5 1dbe 4e3d 95be 580d 42be 9859 40bb
000003e0: 115f 183c ba43 6fbd dcde b1bd 41c6 d13d
000003f0: 3a7d 71bd 2912 0c3d 9bc7 e8bd 01db 0ebe
-0.08297495 -0.05875285 0.051432293 -0.16286214 -0.08682659 -0.21441308 0.068039745 -0.20595422
-0.10909537 0.11193565 -0.1331847 -0.101983786 -0.14440277 0.010109388 0.12591909 0.18351196
0.08082516 -0.2536834 -0.011067444 -0.22797923 -0.06328212 0.14061306 0.13840117 -0.011536891
-0.09770563 -0.22498271 0.12371743 -0.117107235 0.18330163 -0.21458401 -0.06827289 0.03457146
-0.009549401 0.011495236 0.21072623 0.20646207 -0.16016626 0.17016616 -0.19546914 0.035450887
0.04978909 0.0639082 -0.10952219 0.08582246 -0.17750457 -0.22380273 -0.015435992 -0.18276857
-0.092048064 -0.08790515 -0.17855573 0.09522491 0.094837956 0.06339151 0.11542547 0.1989894
0.019412518 -0.14145121 0.22251359 0.1486416 0.17420955 0.3070402 -0.17172799 -0.1653692
-0.15040204 0.22777389 0.11481207 0.23480721 -0.048685305 0.2078659 0.10226319 0.15059131
0.15449883 -0.12745345 -0.21378092 0.22086604 0.008007045 -0.059248883 -0.052129142 0.04577102
0.085460335 -0.0626659 -0.18381928 0.04348682 0.12943034 0.120954946 0.033829134 -0.16765182
0.17794655 0.22681305 -0.14257039 -0.0068561938 -0.03929172 0.015065086 -0.049448285 -0.020218989
-0.14938356 -0.12524335 0.18222438 0.24840413 0.20872639 0.008556538 0.08171733 -0.26312882
-0.0071203858 -0.1758966 -0.11253343 0.017565845 -0.22623336 0.13139024 0.16683635 0.05684497
-0.07444957 -0.29659992 0.053877115 -0.14163563 0.097685345 -0.1977337 0.051164504 -0.055230875
-0.06927843 -0.070774496 0.1589829 0.07110493 0.16095132 -0.057771225 0.08984224 -0.0118118385
-0.02236434 -0.021899028 0.0017118657 -0.17657559 -0.00499817 -0.046025805 -0.1993494 -0.01760804
0.1339071 -0.21060202 -0.20280072 0.17752372 -0.14969753 -0.16604748 -0.17626984 -0.043358557
-0.14285956 -0.035847057 -0.29698855 0.09215027 -0.20656879 -0.13501582 -0.13976502 -0.05647823
0.2872734 -0.17608047 0.13975444 0.05188296 0.09309507 0.29922602 0.16597737 0.090761475
-0.079765245 -0.02983317 0.11145976 0.10071607 0.15185772 0.10859933 -0.014089574 0.07855803
0.0063810097 0.25307214 0.19922607 0.31205603 -0.18718421 -0.08547249 -0.09095715 -0.27354097
-0.038430873 0.073934495 0.07010853 0.055918455 0.0028155665 -0.26672685 -0.18712725 -0.1022323
0.2247089 0.20902097 0.13826992 -0.011137268 -0.21230173 0.1718342 0.042500347 -0.13334109
-0.018907197 -0.16622947 0.047355674 0.14880824 -0.11380081 0.06594748 -0.12827885 -0.08327584
0.16348788 0.04535597 0.040076833 0.090385534 0.036396608 0.18520734 0.17785059 -0.12446991
0.16621773 -0.07701109 -0.19918007 0.16524997 -0.036177315 -0.09385534 -0.21261463 -0.015579595
0.1392087 -0.10814133 0.091839604 0.14167961 -0.050873995 0.065931484 -0.1955131 -0.03212462
0.08453247 -0.05504099 -0.29375494 -0.2371879 -0.09286108 0.13695794 -0.13722512 0.059008736
-0.2293671 -0.04904227 -0.019822672 -0.13849188 0.03794011 -0.09075411 -0.101037875 -0.18770698
0.1314961 0.034847457 -0.07895003 -0.12789556 -0.15395123 -0.29148334 -0.18950403 -0.0029350277
0.009300009 -0.0584142 -0.08685085 0.10242892 -0.058957316 0.034197006 -0.11366197 -0.13950731

bias f4 [64]
00000000: 3699 5ebe 6a5f 893e 344e 253e 8848 6b3e
00000010: bbe3 233d 2479 1abe edc1 04be 0e07 2e3e
00000020: bcae 3bbb b1b9 dcbd 5655 33be 969d 07be
00000030: 1269 913e db11 b93a 251a 61be c962 19be
00000040: 81e2 0ebe 0312 203e 8701 9e3b bed4 f13c
00000050: bce2 75be 0d03 543d d354 53be 504f 163e
00000060: 1a78 d4bd 5865 0b3e a037 a9bd 33de 073e
00000070: 7a07 663e 5b6e 00be 2a67 2b3e 6586 9d3d
00000080: e3f7 9a3c de41 35be 2a54 5d3e 2c30 003e
00000090: d5a6 603e ec08 24be d179 8fbc 3741 4f3e
000000a0: 679f 5b3e 2dbc 15be bc4a b2bd 4fd1 4ebe
000000b0: 1e5f 1bbe f103 093e ed07 a63d cd18 16be
000000c0: 6cd7 a8bc 5230 913c e782 38be 7f54 65be
000000d0: d50c 35be 7595 42bd 852e e13c b775 14be
000000e0: 65de 943b 1c1d 41bd 1db5 013d 48c4 2a3e
000000f0: fb58 4f3d 8dcd 083d 549e e9bc 33c9 1fbe
-0.21738133 0.26830608 0.16143113 0.22976887 0.040012103 -0.15085274 -0.12964602 0.16994879
-0.0028638085 -0.10777605 -0.17513022 -0.13243708 0.28400475 0.0014119701 -0.2198263 -0.1497909
-0.13953592 0.15631871 0.0048219594 0.029520389 -0.24012274 0.051760722 -0.20637827 0.14678693
-0.1037447 0.13612878 -0.08262563 0.13268356 0.2246379 -0.12542097 0.16738573 0.07691649
0.01891703 -0.17700908 0.21614137 0.12518376 0.21938641 -0.16019028 -0.017514141 0.20239721
0.21447526 -0.14622565 -0.08705661 -0.20197032 -0.15173003 0.1338041 0.081069805 -0.14657898
-0.020610534 0.017723236 -0.18018685 -0.22395514 -0.17680676 -0.047505815 0.027488003 -0.1449803
0.004543113 -0.0471469 0.031666864 0.16676438 0.050621968 0.033399154 -0.02851788 -0.15604095

weight_ih_l0 f4 [48, 64]
00000000: cc5e 593c 8dd8 cabd 4ad3 113e b0bd 133d
00000010: 9b1b f43b 4d39 a13c 2ab4 94bd c488 b6bd
00000020: a44c a8bc b3b6 a03c 121d 0c3c 72ca 443d
00000030: 059e 85bc b0be 74bc 39ae 263c 49fc 273e
00000040: 7a88 163c 72b0 9a3d c2d9 c0bd 64d2 513e
00000050: ff1e 0e3e 3982 71bc 605c 5d3d 0932 08be
00000060: f4de de3c 736f 32bd dce7 71bd 323d 9c3d
00000070: 3581 1b3d 8876 4abd a007 b3bd dd15 13be
00000080: c4ec 95bc ae1f c3bd f775 0f3e c780 febc
00000090: 4da3 bb3d 5066 3f3d a864 d63d 0229 4abe
000000a0: 42e2 4a3d a043 c2bd 8817 f63c d3e5 593d
000000b0: b857 543b 88c4 fdbd d0cc 95bc 843b 1d3e
000000c0: b66b 413e a94e cb3d f9fe c53c 02b5 d4bd
000000d0: 6cda fdbd 7030 8c3d 14ec 1b3e c49e 23bd
000000e0: 39fd ac3c e624 2b3d 2490 183e a3cd bebd
000000f0: 50c6 c03d 30a0 9ebd 626b da3d d2b9 943d
00000100: 5e2d fe3c af39 863c a697 2b3d aae1 903d
00000110: 0db9 2d3c 6478 c7bc a79d 2f3d 05cf 8cbb
00000120: b920 893d 9194 983c 37c1 32bc c509 9c3c
00000130: c832 d43d e616 ba3d a9df a63d 4ea8 82bd
00000140: 6136 303c daf7 c03d ad1b b93c f1dc c43d
00000150: ae1f fe3c 6fa7 c53d 0a52 363b 2707 84bd
00000160: 1829 a23d 9021 3d3d ec43 d73d 3d1c d33d
00000170: 3622 e43d 3244 d43c f2e6 41bc 04a9 29bd
00000180: 1cfa ac3c 5bfb f33d 3bbe 89bd 5064 043d
00000190: 7dcb 99bc ae1c 30bd 5195 54bc 20c0 a6bd
000001a0: d987 973d 01d4 1a3c fc4f 76bd 2a3c 62bc
000001b0: 0675 ffbc f7d4 35be 853a 753d d269 e73b
000001c0: 2c77 133e 7eb9 aabd 90d4 84bc a2b8 c83d
000001d0: afdd 41bd 9f5e d33d 6c3a 8f3d 7fbc b13c
000001e0: 5638 81bd bf4b bebc 52ee e73c a67d e73d
000001f0: 57aa 53bd 355b 9b3d 8e28 c53d a88a 9b3d
00000200: 274b e6bc 075f cf3d 20dc 7a3d bc08 16bd
00000210: d26d 1bbc 5bce 6fbd 64d4 633b cecf ab3d
00000220: 4c8f df3d c045 0ebb 9005 393d 4086 27bd
00000230: aff3 da3c c84c 443a 9f6a 8e3d 8e70 7f3d
00000240: e185 69bc 09bb 573d 8a8e d13c f129 f4bb
00000250: 6bd1 cd3c 7774 c0bb d8f9 a0bc 82c6 063e
00000260: 3dfd 683d 67f7 653d 64ff ea3c 0c42 fa3c
00000270: fe3b bb3d 04d1 e8bb beff ef3c 6bf3 053d
00000280: 19b2 9ebc c85f 52bc 33fd 5a3d ce3d a4bd
00000290: 112a dbbc 7d00 7ebc f8bc 763b 8e38 f83c
000002a0: fdfa f63d 92de 0f3d 1f25 e1bb 160c b1bc
000002b0: 113d afbc 544f c53d 024a 3a3d 66c7 183d
000002c0: ce8d d23d b9fe 893d 7f51 febc 03d5 363c
000002d0: 1d4d c0bc 1676 3c3d 874c 5f3d c00b 9c3c
000002e0: 153c c3bc 26a3 43bc c4f7 35bd e518 6f3c
000002f0: fc8e 6f3d e58d 713d 11a6 bf3c 8243 263d
00000300: 2369 62bd 41bc c53d ccd6 ccbc 86bd 493e
00000310: 4f8f f3bc a1f2 15be 0d18 013e d647 0f3e
00000320: 5abe b9bb 8026 d63d 2397 edbd 1826 96bd
00000330: 19f4 483d 4e06 393d 9a8b 703d f313 043d
00000340: 429c 4d3e a504 023e 9236 3f3d b356 123e
00000350: 39e6 373d 9c96 193e 427d f83d 9592 673e
00000360: e59c 713d f49b c1bd 24b6 263e 769b 483d
00000370: 85b2 453e b034 043e da42 dd3c dad8 afbc
00000380: 6be1 87bd 0699 f13c aa2a 443d a47d fd3d
00000390: 7880 7b3c 6141 cf3d 9fd0 b03d 4c86 d13c
000003a0: b827 bebc c3a7 8ebd c8df 203e 5aba a6ba
000003b0: 3e6f ab3d de2c 42be 57a7 d9bd e0ff 603e
000003c0: 20fc db3d e879 8e3d 7643 0ebd 63ff 833d
000003d0: 403e bbbc 89a9 5e3d 3204 333e 8368 b3bd
000003e0: 030c 973c cbc4 8a3b b0d6 83bd 2ea8 b5bd
000003f0: efeb 6f3e 1b2c a13d 2a48 d23d 5484 1c3e
0.01326723 -0.09904585 0.14240757 0.036069572 0.00744958 0.019680643 -0.07260926 -0.08912805
-0.020544358 0.019618368 0.008551853 0.04804463 -0.016310701 -0.014938042 0.010173374 0.16404833
0.009187812 0.075531855 -0.09416534 0.20490414 0.13879012 -0.01474052 0.054043174 -0.13300337
0.027205922 -0.043563318 -0.05905901 0.076288596 0.03796502 -0.049429446 -0.08741689 -0.14363809
-0.018301375 -0.09527527 0.14009844 -0.031067265 0.091620065 0.046728432 0.104684174 -0.19742206
0.049532183 -0.09485555 0.030040517 0.053197693 0.0032400917 -0.12391001 -0.018286139 0.15354735
0.18888745 0.099271126 0.024169432 -0.10386087 -0.12395176 0.06845176 0.15226775 -0.039946333
0.02111684 0.041783236 0.14898735 -0.09316566 0.09412825 -0.07745397 0.10665013 0.07262005
0.031027492 0.016384928 0.04189267 0.07074292 0.010603202 -0.024349399 0.04287496 -0.0042971396
0.066956945 0.01862553 -0.010910324 0.019047627 0.10361248 0.09086399 0.081481285 -0.06379758
0.010755152 0.09422274 0.022596205 0.09612454 0.031020965 0.09651076 0.0027819895 -0.06446677
0.07917994 0.046174586 0.10511002 0.103081204 0.11139338 0.025911424 -0.011834847 -0.04142095
0.021115355 0.119131766 -0.06725737 0.032322228 -0.018773789 -0.0429961 -0.012975053 -0.08142114
0.07398958 0.00944996 -0.060134873 -0.01380829 -0.03118373 -0.17757021 0.05987026 0.0070621753
0.14400929 -0.08336161 -0.016214639 0.09800841 -0.047330555 0.10320782 0.06993565 0.021696327
-0.06309573 -0.023229478 0.028311882 0.113032624 -0.05167612 0.07585756 0.09626876 0.07594806
-0.028112007 0.10125547 0.061245084 -0.036629423 -0.009486632 -0.058546405 0.0034764046 0.08389245
0.109160036 -0.0021709055 0.04517132 -0.040899515 0.026727526 0.0007488248 0.0695393 0.0623632
-0.014253111 0.052668605 0.025580663 -0.007451289 0.025124272 -0.0058732587 -0.019650385 0.13161662
0.05688213 0.056144144 0.028686233 0.030549072 0.09142302 -0.0071049947 0.029296752 0.032702845
-0.019372033 -0.012840219 0.053464126 -0.08019601 -0.026753457 -0.015503046 0.0037649255 0.030300405
0.12059591 0.03512437 -0.0068708803 -0.021612208 -0.021391423 0.09634271 0.045480736 0.037299536
0.10280953 0.067380376 -0.03104472 0.011159184 -0.02347427 0.046011053 0.05451634 0.019048572
-0.02383236 -0.011940753 -0.04442574 0.014593338 0.05848597 0.05897321 0.023394616 0.040591724
-0.055276047 0.09655047 -0.025004767 0.19701204 -0.02973142 -0.14643337 0.12606831 0.13992247
-0.0056684436 0.10456562 -0.11601093 -0.073314846 0.049060915 0.04517203 0.058726884 0.032245588
0.20079139 0.12697084 0.0466829 0.14290886 0.04489729 0.14998859 0.12133266 0.2261451
0.058987517 -0.09453574 0.16280419 0.048976384 0.19306381 0.12910724 0.027009416 -0.021465708
-0.06634792 0.029491913 0.04789225 0.1237748 0.015350454 0.10119892 0.08633541 0.025576733
-0.023212299 -0.06965592 0.15710366 -0.0012720332 0.08370827 -0.18962428 -0.10627621 0.21972609
0.107414484 0.069568455 -0.034732305 0.064451955 -0.022856832 0.0543609 0.17482069 -0.087601684
0.018438345 0.0042348853 -0.06437433 -0.08869968 0.23429845 0.078697406 0.102676705 0.15284854

weight_hh_l0 f4 [48, 12]
00000000: d664 ae3c 5aa1 e3bd b6b2 e33d 6f6e adbd
00000010: 67b4 813b 738a 48be 634b f53d 3494 acbd
00000020: 4ea4 38bd d59c 473e 6ca6 6c3d 99fd d9bc
00000030: 6a61 08be c6eb d2bc 65ff a73d 0eed 0abe
00000040: fba3 2f3d 623e 14be 3abd 4ebc 9323 04bd
00000050: 0202 283d 7a28 d33d 1cee 6f3d 9a25 713d
00000060: 3292 a2bd 348e fabc c393 903b c701 d9bd
00000070: 7f44 013d bca0 e4bd fc92 05bd a1f3 4cbc
00000080: 9355 89bd c927 73bb 0eb0 6c3d 68ed a5bc
00000090: d94c 7ebd eaf9 2ebe 6338 413d cb98 2ebe
000000a0: ef62 133d 0f50 5ebe 932d 04bd 9341 7abd
000000b0: 81cb 15bc cdbd 4b3e 5288 c23d 2a5c b83c
000000c0: 7026 35be 004d 503b 4a04 4b3c da09 443c
000000d0: 9795 4a3e f6f3 573c 38b8 9ebd 5173 fc3b
000000e0: 6f35 8c3d 25d9 d0bd 1625 52bd 61db 173d
000000f0: 43c8 89bc 241f 33be 519f bbbc adcf 373d
00000100: e82e e43d d3ac 943d 2b01 20be a050 d4bc
00000110: d990 7dbd b053 363e eb73 bf3d 8389 0c3e
00000120: bd6e 303c 82ff 233d 8cc7 323d 9478 ee3d
00000130: 7265 113e bc72 f83c e894 20bd 0be4 18bd
00000140: c867 3d3a 1950 0cbe 3109 00be a26f 413d
00000150: f704 18bc 9e3c 2abe cae4 b13b 7150 25bd
00000160: 2616 243e 28c2 2b3e 9a9a 01bc 4714 003e
00000170: b5cf 053e 26c6 143d 7a2b 0d3e d035 97bb
00000180: f5d2 01be 5855 b7bd a019 1a3d 569c 32bd
00000190: ed57 03bc 82ed 0fbe 0493 d53c 7958 8dbc
000001a0: 42f6 3fbd b755 d23d beb3 433d f465 5a3d
000001b0: 0fcd 3d3e 9c13 203d 88da 6d3d 2cfc 89be
000001c0: 4d87 393e 176c 8c3e 1309 e9bd 0fd5 67be
000001d0: 0dd9 a23e 68fb 043e 741a 853d a133 a03d
000001e0: 4653 81bd 83d5 133d ab2c cf3c 0bcd 813d
000001f0: ce9f 803c d36f 003d fc63 febc 9db0 f8ba
00000200: 618b 113b 45b3 abbd ca59 2c3d 08ce 36bd
00000210: 1e56 9f3d ec1f 85bb f694 7b3d 99df 6c3c
00000220: 0220 ba3d bbe7 e1bc 9a97 99bd b74b 0d3d
00000230: b496 8d3c 7e1b 2dbd 3721 20bd a7dc 55bd
00000240: 6fb3 203d 3314 70bd 642c 003e 1829 22be
00000250: f01e d43d 9250 0fbe effd a03d 012e afbd
00000260: 8f58 17bd bedd 3c3e 8895 9dbd 23df 83bd
00000270: 021e d2bd d2a5 26be 0323 1b3e b3aa 80bd
00000280: 42f0 043e 1283 e2bd a7bf 0c3c 379f 98bd
00000290: 6e45 edbd 24f9 c83d 168c b73d 9eaf ca3d
000002a0: b272 15bd ab0c 00be 2ee8 fcbc 3b20 0fbe
000002b0: fb9c d83d a5a7 38be 7f52 53bd 431c c1bd
000002c0: 9cba 2ebe 5689 083e 602a 05bd 7d34 e53d
000002d0: a518 143e cd41 9bbd 4700 a73d b58e 053e
000002e0: 91cd e63d 37cd babd 61d0 053d f555 2dbd
000002f0: 1631 20be 78f2 513e a3a8 07be d966 883d
00000300: e06e 12be 44ca e8bd a1ae 0c3e 793b b9bd
00000310: 228f 7e3d e9ea 1b3e 895b cc3d f0e0 dcbd
00000320: 91b9 2fbe 4b5b d4bd 22cb 303e c993 1a3d
00000330: 332d 3abe ae94 c03b 4b56 693e 7c7b 2cbe
00000340: 50a4 b6bd fcca ac3c aebf 41bc 2255 3abe
00000350: dc50 97bd e741 623e cf06 1b3e 211e b53d
00000360: 5b5e 823d 56aa 873d 2a69 413d 2520 e03d
00000370: 45de 593e 9247 3cbd ee48 21bd 66af 163c
00000380: fe1c f9bd 4adf 21bd 2ff4 223d 34ab 5d3d
00000390: 0be3 c6bd 6f96 01be fe3d bebd 2b17 f9bd
000003a0: 10ca 6b3d bad9 8b3d 4bd7 973c 57dd d73d
000003b0: 4134 c2bc 83c5 3c3e 34bb c6bc 6ea2 253e
000003c0: 6a7c 04be 858d b1bc cd53 7f3d 90ed 85bd
000003d0: 4105 e03d 117a 51be f00b 53bd 824a 23bd
000003e0: 40ee a9bd 9154 a93d 516a 793d 03f9 7bbd
000003f0: 4319 ccbb 97bf 21be 71a7 05be af26 16be
0.021288317 -0.1111476 0.11118071 -0.08468329 0.003958273 -0.19584064 0.119772695 -0.08426705
-0.04507857 0.1949342 0.0577759 -0.026610183 -0.1331841 -0.025747191 0.082030095 -0.13566992
0.042880993 -0.14476922 -0.012618357 -0.03226049 0.04101754 0.10310455 0.05857669 0.05887375
-0.07938041 -0.030585386 0.004412146 -0.10596042 0.031559464 -0.1116347 -0.03261088 -0.0125092575
-0.06705775 -0.0037102571 0.057785086 -0.020254806 -0.062085006 -0.17087522 0.047172915 -0.17050473
0.035983022 -0.21710227 -0.032270025 -0.061097693 -0.009142757 0.19896622 0.09498657 0.022504885
-0.17690444 0.0031784177 0.012391159 0.011965239 0.19783626 0.013180723 -0.07749981 0.0077041765
0.06846129 -0.10197667 -0.0513049 0.03707445 -0.016819125 -0.17492348 -0.022903116 0.04487579
0.11141759 0.07259526 -0.15625446 -0.025917351 -0.061905716 0.17805362 0.093482815 0.13724332
0.01076859 0.040038593 0.043647334 0.11644092 0.14198855 0.030328147 -0.039204508 -0.037326854
0.00072252424 -0.1370243 -0.12503506 0.047225602 -0.009278527 -0.16624686 0.005428885 -0.040359918
0.16024074 0.16773283 -0.007910395 0.12507735 0.13067515 0.03632178 0.13786116 -0.0046145692
-0.1267813 -0.08951825 0.037622094 -0.043606125 -0.008016569 -0.14055446 0.02607108 -0.017254101
-0.04686571 0.10270255 0.047778837 0.053319886 0.18535255 0.0390812 0.058069736 -0.26950204
0.1811802 0.27426216 -0.11378684 -0.22639869 0.31806222 0.12986529 0.06499186 0.078223474
-0.06314711 0.036092293 0.025289854 0.06337937 0.0157012 0.031356644 -0.031053536 -0.0018973533
0.002220832 -0.08383802 0.042077817 -0.04463008 0.077800974 -0.0040626433 0.061421357 0.014457607
0.09088136 -0.027576318 -0.07499619 0.034496035 0.017283775 -0.042262547 -0.039094176 -0.052212384
0.03923362 -0.058613013 0.12516934 -0.15835989 0.10357463 -0.13995579 0.07860934 -0.085536964
-0.03694969 0.18443963 -0.076945364 -0.06439044 -0.1025963 -0.16274193 0.15150075 -0.06282558
0.12982276 -0.11060156 0.008590615 -0.07452243 -0.11585508 0.09813145 0.08962266 0.098967776
-0.036486335 -0.12504832 -0.03087243 -0.13977139 0.10576817 -0.18032701 -0.051592346 -0.094292186
-0.17063373 0.1333364 -0.032511115 0.11191652 0.14462526 -0.0758091 0.0815435 0.1304272
0.112696774 -0.09121173 0.03266943 -0.042318303 -0.15643725 0.2050265 -0.13247924 0.06660242
-0.14300108 -0.11366704 0.1373849 -0.09044547 0.06214822 0.1522633 0.099783964 -0.10785091
-0.17160632 -0.10368975 0.17264989 0.037738595 -0.18181305 0.005877099 0.22786824 -0.1684398
-0.08918059 0.021092884 -0.011825485 -0.18196538 -0.073884696 0.22095452 0.15139316 0.08843637
0.06365653 0.06624286 0.047219433 0.10943631 0.21276195 -0.045966692 -0.03937619 0.009197092
-0.12163733 -0.039519586 0.039783653 0.05411835 -0.09711274 -0.12655042 -0.09289168 -0.12162622
0.05756575 0.068286374 0.018535277 0.10540264 -0.023706557 0.1843472 -0.024259187 0.16175243
-0.12938085 -0.021673927 0.062335778 -0.06539452 0.10938502 -0.20456721 -0.051525056 -0.039865978
-0.08297396 0.08268083 0.060892407 -0.061516773 -0.0062285974 -0.15795742 -0.13052155 -0.14663194

bias_ih_l0 f4 [48]
00000000: d86d bd3b 67e6 88bd 691d a43d 334d 04bd
00000010: c099 673e 784a 5e3e 9667 cebd 57ec 483d
00000020: 26cb ba3d 8fa4 36be cd34 2cbd f0cc e9bd
00000030: db40 543e da35 3c3e 1a0c aabd 8411 36bb
00000040: 9732 09be f5fc 6c3b aadb 49bd 68f6 c43b
00000050: 7fd3 ba3c c52b 823e 263b 91bc 92b3 893e
00000060: a501 bb3d 718c 0e3e 5b19 0ebe 0ab0 6dbd
00000070: 88d2 aabd a220 5fbe 197a 973d ba35 803e
00000080: 1bdc 28be e6d7 f33d c916 433e c9a3 a93d
00000090: fb6b 2a3e ab68 fe3d 1631 8d3c 4319 8b3d
000000a0: 4a5c 28be 5f91 503c 52d2 283d 0ec8 21be
000000b0: 193b 5b3c 4d40 873e 68bb 05be 7db0 2bbe
0.0057809167 -0.06684571 0.08013422 -0.032300185 0.22617245 0.21708095 -0.10078351 0.049053516
0.09120779 -0.17836212 -0.042042542 -0.11416042 0.20727865 0.18379918 -0.083030894 -0.0027781436
-0.13398205 0.0036161516 -0.049281754 0.006010819 0.022805927 0.25424019 -0.0177284 0.26894814
0.09131173 0.13920762 -0.1387686 -0.058029212 -0.08340937 -0.21789792 0.07396335 0.2504099
-0.16490214 0.11906414 0.1905166 0.08283193 0.16642754 0.124223076 0.01723532 0.06791928
-0.16441455 0.012729972 0.041216202 -0.15798971 0.013380789 0.26416245 -0.13059771 -0.16766544

bias_hh_l0 f4 [48]
00000000: e220 dabc a30d 86b9 e3ef 093e 4a94 f03d
00000010: 43de edbd 4246 9e3d 4e16 6e3d 36f7 153e
00000020: 8818 d33d d5b5 183e 631f 8a3d b1c1 4c3e
00000030: 9e46 7d3e 9a34 8ebd 822c aabd 7ab0 61bd
00000040: fcbf 383d 64a0 153e 805b 0d3d 50f5 84bb
00000050: c1f2 323d 3892 803e 6c79 413e 3850 723e
00000060: 87d5 30be fb1f 3d3d 35fb 953e 6edb 373b
00000070: 7b98 23be aa6c a73d fec2 95be b7ee 7abe
00000080: a562 133e 2f65 56be 920c 073e 4fe6 6b3e
00000090: 0f95 f0bc 4b3d 4a3e 8d77 8a3d 1fb9 943e
000000a0: e43a 733d 2d41 4f3e 27f9 58bc 7925 adbd
000000b0: 9116 953d b180 ca3e ceae 87bc acd9 bfbd
-0.026627008 -0.00025568632 0.13470416 0.11747034 -0.11614659 0.07728244 0.05812674 0.14645085
0.10307413 0.14913113 0.06744268 0.19995762 0.2473397 -0.06943627 -0.083092704 -0.05509994
0.045104966 0.14611965 0.03451109 -0.004057564 0.04368854 0.25111556 0.18893975 0.23663414
-0.17268954 0.046173077 0.29293218 0.0028054374 -0.15976135 0.08175023 -0.2925033 -0.24505125
0.14393099 -0.20937036 0.13188389 0.23037075 -0.029367952 0.19749944 0.06761084 0.29047486
0.059382334 0.20239706 -0.013242996 -0.08454413 0.07279695 0.3955131 -0.016562846 -0.093676895

weight_ih_l1 f4 [48, 12]
00000000: 0c4c 3dbe 9954 39be d302 3a3e 8dbf e4bd
00000010: f7e0 ee3d 321b babd b354 40be 6f8a 82bd
00000020: 522b 27be dbd2 dabc df8e 8f3d af14 453e
00000030: 5e23 c2bd 1e5c 1cbe 7edc 8d3e e382 4cbe
00000040: f94b 3e3e 7b8a 943c 9119 6abe 8c45 05bd
00000050: 327e 36be 3c00 c43d d4cf d33c 3658 29bd
00000060: 4741 253e 3b4b d73d 005d 5e3d 45e6 123e
00000070: ba1b 053d 9758 22be b8e7 01be c6a5 213c
00000080: aeb9 c7bc b469 073e e1dd 16bd 1e42 fcbc
00000090: 259f 49be d105 2cbe 34a9 87bd 38ee 0bbd
000000a0: 3a40 cc3d d12e 40be f509 cabd a120 93bd
000000b0: 8688 04be a30e 26bc 72d0 823d 28cd d13c
000000c0: 51db aa3c 4146 23be 8633 573e 9cef 253d
000000d0: 83a1 ea3d 1a3f 78bd a8a1 2b3c 5029 803c
000000e0: e224 14be 01fd 0e3e 96ce 993e bdf9 c63d
000000f0: f1aa 42be 60bd 3abe bdab 4b3d 9a6a e9bd
00000100: 208d 863d 2e10 99bb 89d9 0fbe 124e f13c
00000110: 2ff7 aebd 6500 23be c08a 57bb e478 553e
00000120: 380a cabd 9fe6 1fbe bcc8 9cbb bae0 76bd
00000130: b72c 783e e1bb 423e 6610 86be 129d 0a3d
00000140: aa44 36be 7560 01be f6f1 823e 96a4 653e
00000150: a380 18bd a680 8cbd c771 153e 1eca 14be
00000160: f4fd 0f3e e601 f1bd b4f0 37be 99c6 00bd
00000170: 449c 31be f746 28be 7c46 bf3d 2aac 093e
00000180: 99c5 76bd 15ac 1cbd 3566 053d 3b1d fcbd
00000190: 5d21 3fbd c21b ddbd 17f7 31be 00dd bebd
000001a0: 6789 a0bc 819b 863e 9601 21bd 30ea 8c3d
000001b0: 0ac2 96be 9499 56be 11f7 063e 6c48 00be
000001c0: e7f6 963d 87af 553d 58b7 e6bd 4235 16be
000001d0: 71b8 67bd 0a40 003e 8470 c33d 632b 01bd
000001e0: 62d1 57be 5f6c bdbd 1434 503e 6d5f fdbd
000001f0: 70d3 823e 5365 94bc f874 3bbd f1d2 5bbd
00000200: fe5d c2bd 2690 12be 2375 193e b00f 213e
00000210: f0b9 923d 6323 e4bd aa18 743d 49aa 713d
00000220: 2782 863d a885 37bd be99 86be 3965 3f3d
00000230: 5990 d8bc 5818 ebbd 8748 633e 0dab 893d
00000240: 76ab 1dbe 6caa 623d 29f5 153e 3682 11bd
00000250: 8a93 7f3e de70 0abe e484 52be 25bc b0bb
00000260: 97fb e23b 4bac 6fbe e959 e03b 5a2c b9bc
00000270: f88e 82be c85c 38be 419e 6a3e b52d 91be
00000280: 6d96 6c3e eabf 223d 13d0 61be cf9c f3bd
00000290: 607e 86bd 8dcf 3dbd 6a04 843e b13a 443c
000002a0: 0916 01bd 32e1 5d3d aaee 333e 7cf9 a23d
000002b0: ca34 7c3e cc61 6ebd c398 d9bd 18f8 0dbe
000002c0: d358 31bd 3205 c93d 201a 9f3c a66f 333e
000002d0: 33c4 55be f798 cebd 4fce a0bd c788 9a3b
000002e0: fa2f 4ebd da5f 9ebb 4da2 0cbe 52e2 6e3c
000002f0: 852e 25be 946f 7d3e 120e ebbd ce4f 9f3d
00000300: dbaa ccbd 71d0 5f3d 7a4d 9e3d cd39 25be
00000310: 808b 6c3e a94f a13d 9734 79be 2a3a b73c
00000320: cbed 00be 49fb 8d3d 3e1f b73c 422a 473e
00000330: 7394 cbbd dfc4 943d 04a0 3f3e aa8a aa3c
00000340: 0a5e 603d 17ef c63d 434d 1cbe 833a 69bb
00000350: 2e4f 003d 62bf fe3c 3824 ba3d 76df c53d
00000360: 05e4 80be 1fda e3bd f075 a23d 5f4a 88be
00000370: 7f1b 68bd c878 b73c 8b6c 9a3b 8341 6fbe
00000380: b18c 8c3d 4723 ed3d bdfc 673e 807f 5e3e
00000390: 3427 28be 9189 0abb a848 3b3e 5349 13be
000003a0: a2b8 833d a698 2cbc 9236 a33d 7081 e0bd
000003b0: 7ee4 93bd 546c 8abe 90c0 153d dbb8 8fbc
000003c0: ac7d 0e3e 00d5 4abe 0124 bfbd 6bb3 043e
000003d0: 121c 5e3e fc24 14be cc8d 1ebe 5a75 123e
000003e0: 0ee9 bb3d 8b30 8e3e 22a9 a2bb 2901 623d
000003f0: b059 b0bd ab50 8abe 0db4 0a3e 2372 adbd
-0.18486041 -0.18098678 0.1816514 -0.11169348 0.116640024 -0.09087218 -0.1878231 -0.0637406
-0.16325119 -0.026711872 0.070096724 0.19246171 -0.09479402 -0.15269515 0.27707285 -0.19971804
0.18583669 0.018132439 -0.22861315 -0.03253703 -0.17821577 0.09570357 0.025855936 -0.04134389
0.16138183 0.10512396 0.05428791 0.14345653 0.032497145 -0.15854107 -0.1268605 0.009866184
-0.024380531 0.13223916 -0.036832694 -0.030793246 -0.19689615 -0.16799094 -0.0662407 -0.03416273
0.09973188 -0.18767859 -0.098651804 -0.07183958 -0.12942705 -0.010135326 0.06387414 0.025610521
0.020856531 -0.15944768 0.21015748 0.040511712 0.11456587 -0.060607053 0.010475554 0.0156447
-0.14467195 0.13963701 0.30040425 0.097156025 -0.19010521 -0.18236303 0.04972433 -0.11397286
0.06569886 -0.004671118 -0.14047827 0.029456172 -0.0854324 -0.15918119 -0.0032889098 0.20846897
-0.0986523 -0.15615319 -0.0047846716 -0.06027291 0.24235807 0.19016983 -0.26184386 0.0338412
-0.17799631 -0.12634452 0.25575227 0.22426066 -0.037232053 -0.06860475 0.14594184 -0.14530227
0.14061719 -0.1176794 -0.17962915 -0.031439397 -0.17344767 -0.16433321 0.09339616 0.13444582
-0.060247038 -0.038250048 0.032568175 -0.12310263 -0.046662677 -0.1079631 -0.17379414 -0.09319496
-0.019596769 0.26290515 -0.039308153 0.06880605 -0.29444915 -0.20957023 0.13180186 -0.12527627
0.07371312 0.05216935 -0.11265439 -0.14668754 -0.05657238 0.12524429 0.09542945 -0.031535517
-0.21075967 -0.09249186 0.20332366 -0.12371717 0.2555194 -0.018114721 -0.045765847 -0.053667966
-0.09490584 -0.14312801 0.1498609 0.1572864 0.07164371 -0.11139562 0.059593834 0.059000287
0.06567793 -0.0448052 -0.2628917 0.046727393 -0.026436018 -0.114792526 0.22195636 0.067220785
-0.15397438 0.05533831 0.14644302 -0.03552457 0.24958625 -0.13519618 -0.20558506 -0.0053935223
0.0069269645 -0.23405568 0.0068466556 -0.022604156 -0.25499701 -0.18004143 0.22911932 -0.28355184
0.23104258 0.039733805 -0.2205203 -0.11895143 -0.06567073 -0.046340514 0.25784618 0.011976884
-0.031515155 0.05416984 0.17571512 0.079577416 0.24629512 -0.058198735 -0.1062484 -0.13864172
-0.0432976 0.09815444 0.019421637 0.17523059 -0.20875625 -0.100877695 -0.0785185 0.004716012
-0.050338723 -0.0048332037 -0.13733788 0.014580326 -0.16131027 0.24749595 -0.11477293 0.077788934
-0.099935256 0.054642145 0.07729621 -0.1613533 0.2310009 0.07876522 -0.24336468 0.022366602
-0.12590711 0.069326945 0.022353765 0.19449714 -0.09940424 0.07264113 0.18713385 0.020818073
0.054777183 0.097135715 -0.15263848 -0.0035587854 0.03132551 0.031097118 0.090889394 0.096617624
-0.25173965 -0.11125588 0.07932651 -0.2661924 -0.056666847 0.02239646 0.0047126464 -0.23364834
0.06862772 0.11578994 0.22655006 0.21728325 -0.16421205 -0.0021139125 0.18289435 -0.1438344
0.064317 -0.010534441 0.07969393 -0.10962188 -0.07221316 -0.27035773 0.036560595 -0.0175442
0.13915128 -0.19807816 -0.09333039 0.12959068 0.21690395 -0.14467233 -0.15483779 0.14302579
0.09175311 0.2777141 -0.00496401 0.055176888 -0.086108565 -0.2701467 0.13545246 -0.084690355

weight_hh_l1 f4 [48, 12]
00000000: 7f17 c0bd b8f2 483e af7e 08bd 153a 693b
00000010: 8887 b0bd 9ef1 213e 9bec d93d 14bf 2a3d
00000020: 3a6e 80bd 3f49 3a3e bdc6 ba3c 7a12 a93d
00000030: 4cc0 33be f795 d6bd 1380 fd3c 405f 983d
00000040: 0601 22be c1fd dc3d 0717 563e 6172 1a3e
00000050: 8675 093d 5445 ca3c cd4c 01bd 3b9d 08be
00000060: e3e0 bcbd 85b2 6ebd eb96 c93b b149 213e
00000070: d25f 143e d79c 82bc e055 efbd aecb 1a3e
00000080: 5e9b a73d 326c d5bd f6af c4bd 1e89 953d
00000090: b0e9 9ebc 51cc 86bd a80a 5abc 250a f9bc
000000a0: 9278 bf3d a1e7 be3d 7475 2f3d 427c c53d
000000b0: d018 ae3d 9d78 603d 7c1e f33d a1e4 12bd
000000c0: 7d2b 883c a7af 1f3d 83bb 6c3e 9df1 813e
000000d0: fa28 1ebe 6ee2 56bd 8ad6 443e 7c93 0d3e
000000e0: d2a9 16be 9c0a 823d 869a c23c 7799 d3bc
000000f0: 71ce e0ba f663 3a3e fe24 933d fe2d 733d
00000100: 9e28 d1bb bb28 94bd d3a2 9e3d 75f8 46bd
00000110: e8bf 43be cd9f fc3d 6d8c 243d 9928 053d
00000120: 77b8 3bbe 956b 243e 75b2 f23d 65ab 9a3d
00000130: 62df eebd ee6d 953e f44a ae3c 9d90 8e3d
00000140: c316 213e aa4c 743e cd60 4e3b 59ef 44bd
00000150: 068c 96bd dfa9 a03d 5e71 fdbc 3fcb 833d
00000160: 79cd 9c3c 43f5 82bd 4278 393e 5e98 f53d
00000170: db6e bcbc 00e3 463e 18ea 2abd 4eb9 c33d
00000180: 1df1 e6bd 0b6d 053e 9921 e43d ca13 ac3c
00000190: 9642 143e 6fd3 6d3e b261 8ebd eec8 3e3e
000001a0: 6ed1 cfbd b456 f938 2203 2b3e 477e 613e
000001b0: 29f5 b2bd 4a3d 7d3e 4393 af3c 3009 613d
000001c0: 16bc 233e 988b 5d3d 914d c23c 0bb9 753d
000001d0: 3eda c63d 4835 eb3a e552 17bd 8e06 a4bd
000001e0: 3178 fdbd 4a60 043e 869f 723d 9557 f03d
000001f0: b4a0 f23c adec ef3d d2c5 f03d 3782 153e
00000200: 8766 58bd 76e4 bf3c a42b fc3d 9696 b33c
00000210: f135 abbd e9a8 823e 7fc1 d53c 3655 373e
00000220: bf0e 963d 5652 733e 2abb 1c3e b5c8 443d
00000230: bb72 90bd f798 d23c cc24 e03d 50be e3bd
00000240: 5067 a3bd ff45 a73d 5126 8c3c a3fb 9c3c
00000250: 19fe 153e e010 d63d 9b49 b63d ac95 d93d
00000260: 295c 3c3d a125 963c 5898 7fbb 42e9 173e
00000270: cef7 5a3d c458 4e3e 5744 883c fb02 03bd
00000280: 452f 433d 72b4 ddbc b8e0 753e c845 153d
00000290: 4dab 8abe 0b81 23bd d5bb cebd aa2a 99bd
000002a0: d695 2bbe acfb 2b3e aa20 22be 836d fd3d
000002b0: e4e1 3f3e bb72 2c3e 5f4d a83d 66d8 ef3d
000002c0: ff7c 8c3d 879b 863d 9a73 16bd 28d9 3bbe
000002d0: 36ae 1ebd 1ca8 663d dbeb 313d 27ff bb3c
000002e0: b0de 693e a311 8abc d0aa b3bd 9b5c f2bd
000002f0: 2be5 cb3d e6fa bbbd ed9a 8cbd 6700 85bd
00000300: 81c2 163e e0cc 66bd be60 5c3e 2390 6fbd
00000310: 6ef6 eb3a f61a 00be d1f6 313e 8e94 98bd
00000320: abed 92be 3850 7ebd 6234 a6bd b4a3 c7bd
00000330: f5f0 9d3d 6b0f 523d baae 5cbd 6d27 88bd
00000340: e45f b83c 78b2 613e 05a8 5d3d 91f7 e5bd
00000350: 5459 24be 2877 353d 4a46 123e 37e8 55bd
00000360: e655 d6bd d78d 8fbd 1888 d53c e28b 29bc
00000370: 6387 0e3e 9bcb b23d ce2c 473e 238a 013d
00000380: b7d4 543d 949b 5a3e 0e7b c1bd ea13 313e
00000390: 9059 18bc e3b8 453d d1c7 78bd e96b 2a3e
000003a0: e993 c73d 3754 263e 0839 f93d 077f ed3d
000003b0: 12a3 e63d 05d8 4a3e 4b10 1f3d 7bc7 583e
000003c0: 6345 9f3d fba8 8d3d 60c2 2a3e 82ef 6d3e
000003d0: 6230 503d ace7 40bd 43aa 40be aee0 8f3d
000003e0: c8b6 1bbe 9adb 003b ff87 083e e52d 593c
000003f0: 81b3 10bd a93f 29bd cac5 2c3d 0639 023e
-0.093794815 0.1962384 -0.03332394 0.0035587598 -0.086196005 0.15814826 0.10640832 0.041686133
-0.06271024 0.18192004 0.022799844 0.08255477 -0.17553824 -0.10477822 0.03094486 0.074400425
-0.15820703 0.10790587 0.20907222 0.15082695 0.033559345 0.024691261 -0.031567384 -0.13341229
-0.09222581 -0.05827572 0.006152024 0.15750767 0.14489678 -0.015943928 -0.11686301 0.1511676
0.08183931 -0.10421027 -0.096038744 0.07301544 -0.01939854 -0.06581939 -0.013308205 -0.030400345
0.09349169 0.093215235 0.04283662 0.09642841 0.08500826 0.054802526 0.11871049 -0.03586257
0.0166223 0.038985875 0.23118405 0.2537965 -0.15445319 -0.052462034 0.19222465 0.13825792
-0.14713219 0.0634968 0.023755323 -0.025830014 -0.0017151368 0.18202195 0.0718479 0.059370033
-0.006383016 -0.07234331 0.077459 -0.04857679 -0.19116175 0.12335167 0.040172983 0.03250942
-0.18332087 0.16056664 0.11850444 0.07552222 -0.11663701 0.29185432 0.021275975 0.069611765
0.15731339 0.2385737 0.0031490803 -0.048079822 -0.07350926 0.078449 -0.030937847 0.064352505
0.019140946 -0.06394436 0.18112281 0.11991952 -0.023002079 0.19422531 -0.041727155 0.095568284
-0.112764575 0.13029878 0.11139221 0.02100553 0.14478526 0.23225187 -0.06952228 0.18631336
-0.101473674 0.00011889395 0.16700414 0.22020827 -0.08738167 0.24730411 0.021432525 0.054940403
0.15989718 0.054088205 0.023718627 0.059990924 0.09709595 0.0017944956 -0.03694429 -0.08009063
-0.1237644 0.12927356 0.059234165 0.11735455 0.029617645 0.11715064 0.11756481 0.14600454
-0.052832153 0.023424368 0.12313011 0.02192239 -0.08359898 0.25519493 0.026093243 0.17903599
0.07327031 0.23761877 0.15305772 0.04804297 -0.07053133 0.025707705 0.109445184 -0.111202836
-0.0797869 0.081676476 0.017108114 0.019162958 0.14647712 0.104524374 0.08900758 0.10624251
0.04598633 0.01832849 -0.0039000716 0.14835075 0.05345898 0.20151049 0.01663415 -0.031985264
0.0476525 -0.027063582 0.24011505 0.0364435 -0.27083817 -0.039917987 -0.1009442 -0.07478841
-0.16756377 0.16795224 -0.15832773 0.12374403 0.18738514 0.16840641 0.08217882 0.117111966
0.068597786 0.06572633 -0.03673134 -0.18344557 -0.03874036 0.056312665 0.04343782 0.022948815
0.22838855 -0.016854113 -0.08772814 -0.11834069 0.0995582 -0.091787145 -0.06865487 -0.06494217
0.14722635 -0.056347728 0.21521279 -0.05848707 0.0018002519 -0.12510285 0.17379309 -0.074502096
-0.2869695 -0.06208822 -0.0811546 -0.09748021 0.077119745 0.051284235 -0.05387757 -0.06648145
0.022506662 0.22040737 0.054115314 -0.1122886 -0.16049701 0.04430309 0.14284626 -0.05222341
-0.104656026 -0.07009476 0.026065871 -0.010348292 0.13918833 0.08730241 0.19450685 0.031625878
0.051960673 0.21348411 -0.09447299 0.17292753 -0.009298697 0.048272025 -0.060737435 0.16642727
0.097450085 0.16243063 0.12169081 0.11596494 0.11261572 0.19808967 0.038833898 0.21169846
0.07776906 0.06916996 0.1667571 0.23235896 0.05082739 -0.04709594 -0.1881495 0.07025276
-0.15206444 0.0019662143 0.13333128 0.013255571 -0.03532744 -0.041320477 0.042180814 0.12717065

bias_ih_l1 f4 [48]
00000000: 4a2b 243e d785 0fbe da78 703e ec47 ee3d
00000010: 7a76 c33c a6ab 933e da55 ad3d cab5 b23e
00000020: 707c ad3d 16bd 1dbe 10a9 50bc 6fd9 033e
00000030: d35a 673e a5b7 fa3d 26ae 9f3e 3272 da3d
00000040: 79c0 713d dd3f 30bd 6cfb 7d3e 83b1 afbd
00000050: 13bd 85bd 0075 b03d 5da2 b63e c0d8 9a3e
00000060: af05 21be ca9f 403e e492 d4bd 5178 28bd
00000070: 9c15 3cbe d758 d0bd c9fe ef3d d620 c93d
00000080: 3377 4e3e 4d61 1d3e eeac e6bd ae5b 953d
00000090: 849a 993e 92f8 cb3e 21ea 54bd 61cf cb3d
000000a0: 13fc c23e da42 00bc a0ca 3d3e 202e 443e
000000b0: ceb0 b23e fc0d 0d3e fb4b c83e 53c5 d03e
0.16032138 -0.140159 0.23483601 0.11634812 0.023860205 0.28841895 0.084636405 0.3490432
0.08471 -0.15404162 -0.01273562 0.12875913 0.2259324 0.12242059 0.31187552 0.10666312
0.059021447 -0.043029655 0.24802941 -0.085787795 -0.06530204 0.08616066 0.35670748 0.30243492
-0.15724824 0.18810955 -0.1037958 -0.041130368 -0.18367618 -0.10173195 0.11718518 0.09820716
0.20162658 0.15369149 -0.112634525 0.07292877 0.300007 0.39838082 -0.051981095 0.09951664
0.38082942 -0.007828439 0.18534327 0.1915822 0.34900516 0.13774866 0.39120468 0.40775546

bias_hh_l1 f4 [48]
00000000: 5fc0 a23e d60a 093e 225b 963e 7da5 7e3d
00000010: f515 24bd 3c22 8e3e bf3d 24bd 19cb ae3d
00000020: b3c7 813e afdd 8b3d d3f2 423e 8737 f23d
00000030: a43f ed3d 8d33 013e 8fc5 9a3d a117 473e
00000040: 89d3 34bd d714 6b3e 07b7 5c3d 683f 003e
00000050: 31ac 9d3c c9f8 c4bd 71b4 4ebd 4bd3 a33e
00000060: 0525 e43d 9481 1f3e e04b 093e d9f8 593d
00000070: f5d2 043e b304 5d3e 4789 8c3e ca7d c03d
00000080: ff49 8abe 8dde 5cbd 21e1 613e cef4 f73d
00000090: e25c d33d 5456 893e 307b af3d 127b b83d
000000a0: cdf6 633e 2365 a23e 442c 883e 9e3c 4d3e
000000b0: 1364 c43e a1ad 9d3d 7733 c13e cf57 523e
0.31787392 0.1338304 0.29366404 0.06216954 -0.040060002 0.27760494 -0.04009795 0.085348316
0.2534767 0.06829392 0.19037943 0.11826997 0.11584404 0.12617321 0.075572126 0.19442607
-0.04414705 0.22957169 0.053885486 0.12524188 0.019247146 -0.096177645 -0.05046505 0.3199714
0.111398734 0.15576774 0.1340785 0.053215835 0.12971099 0.21583824 0.27448484 0.09398992
-0.2700958 -0.05392318 0.22058536 0.1210724 0.1032045 0.26823676 0.08568418 0.09007849
0.22262116 0.31717786 0.26596272 0.20042655 0.383576 0.07699133 0.37734577 0.20541309

weight f4 [3, 12]
00000000: 8335 cc3e f541 173e 5297 073f 3ede f03d
00000010: 0a1b e73e 4fe1 d3be 8974 e43d bd40 c9be
00000020: 4af2 e3be a643 863e ae46 2cbf efb3 03bf
00000030: f2ee b6be 6eae 5c3e 8a75 4ebe 99fc bfbe
00000040: ba73 afbe 3550 a53e d98a 16bd c8b5 c73e
00000050: e644 d03d ece9 b23d 6213 603c 2c17 b63e
00000060: 3998 a9be f68e 13bf a4ba d1be 8901 01bf
00000070: 1673 3abe 205e 423e 4567 27bf 275e a13e
00000080: 72c9 bd3e 24c2 0cbf 555f 923c 1453 ae3e
0.39884576 0.14771254 0.5296527 0.11761139 0.45137817 -0.41382834 0.1115504 -0.39307204
-0.4452079 0.26223487 -0.6729535 -0.5144643 -0.35729176 0.21550915 -0.20162025 -0.37497404
-0.3426798 0.32287756 -0.03675351 0.39005876 0.10169391 0.08736023 0.013676496 0.35564554
-0.3312395 -0.57640016 -0.40962708 -0.5039297 -0.18207964 0.18981218 -0.6539195 0.31517145
0.37067753 -0.54983735 0.017867723 0.3404776

bias f4 [3]
00000000: 3625 a5be bf62 eabd 7c0f 833d
-0.32254952 -0.114446156 0.06399438

weight f4 [64]
00000000: 0000 803f 0000 803f 0000 803f 0000 803f
00000010: 0000 803f 0000 803f 0000 803f 0000 803f
00000020: 0000 803f 0000 803f 0000 803f 0000 803f
00000030: 0000 803f 0000 803f 0000 803f 0000 803f
00000040: 0000 803f 0000 803f 0000 803f 0000 803f
00000050: 0000 803f 0000 803f 0000 803f 0000 803f
00000060: 0000 803f 0000 803f 0000 803f 0000 803f
00000070: 0000 803f 0000 803f 0000 803f 0000 803f
00000080: 0000 803f 0000 803f 0000 803f 0000 803f
00000090: 0000 803f 0000 803f 0000 803f 0000 803f
000000a0: 0000 803f 0000 803f 0000 803f 0000 803f
000000b0: 0000 803f 0000 803f 0000 803f 0000 803f
000000c0: 0000 803f 0000 803f 0000 803f 0000 803f
000000d0: 0000 803f 0000 803f 0000 803f 0000 803f
000000e0: 0000 803f 0000 803f 0000 803f 0000 803f
000000f0: 0000 803f 0000 803f 0000 803f 0000 803f
1.0 1.0 1.0 1.0 1.0 1.0 1.0 1.0
1.0 1.0 1.0 1.0 1.0 1.0 1.0 1.0
1.0 1.0 1.0 1.0 1.0 1.0 1.0 1.0
1.0 1.0 1.0 1.0 1.0 1.0 1.0 1.0
1.0 1.0 1.0 1.0 1.0 1.0 1.0 1.0
1.0 1.0 1.0 1.0 1.0 1.0 1.0 1.0
1.0 1.0 1.0 1.0 1.0 1.0 1.0 1.0
1.0 1.0 1.0 1.0 1.0 1.0 1.0 1.0

bias f4 [64]
00000000: 0000 0000 0000 0000 0000 0000 0000 0000
00000010: 0000 0000 0000 0000 0000 0000 0000 0000
00000020: 0000 0000 0000 0000 0000 0000 0000 0000
00000030: 0000 0000 0000 0000 0000 0000 0000 0000
00000040: 0000 0000 0000 0000 0000 0000 0000 0000
00000050: 0000 0000 0000 0000 0000 0000 0000 0000
00000060: 0000 0000 0000 0000 0000 0000 0000 0000
00000070: 0000 0000 0000 0000 0000 0000 0000 0000
00000080: 0000 0000 0000 0000 0000 0000 0000 0000
00000090: 0000 0000 0000 0000 0000 0000 0000 0000
000000a0: 0000 0000 0000 0000 0000 0000 0000 0000
000000b0: 0000 0000 0000 0000 0000 0000 0000 0000
000000c0: 0000 0000 0000 0000 0000 0000 0000 0000
000000d0: 0000 0000 0000 0000 0000 0000 0000 0000
000000e0: 0000 0000 0000 0000 0000 0000 0000 0000
000000f0: 0000 0000 0000 0000 0000 0000 0000 0000
0.0 0.0 0.0 0.0 0.0 0.0 0.0 0.0
0.0 0.0 0.0 0.0 0.0 0.0 0.0 0.0
0.0 0.0 0.0 0.0 0.0 0.0 0.0 0.0
0.0 0.0 0.0 0.0 0.0 0.0 0.0 0.0
0.0 0.0 0.0 0.0 0.0 0.0 0.0 0.0
0.0 0.0 0.0 0.0 0.0 0.0 0.0 0.0
0.0 0.0 0.0 0.0 0.0 0.0 0.0 0.0
0.0 0.0 0.0 0.0 0.0 0.0 0.0 0.0

running_mean f4 [64]
00000000: 0000 0000 0000 0000 0000 0000 0000 0000
00000010: 0000 0000 0000 0000 0000 0000 0000 0000
00000020: 0000 0000 0000 0000 0000 0000 0000 0000
00000030: 0000 0000 0000 0000 0000 0000 0000 0000
00000040: 0000 0000 0000 0000 0000 0000 0000 0000
00000050: 0000 0000 0000 0000 0000 0000 0000 0000
00000060: 0000 0000 0000 0000 0000 0000 0000 0000
00000070: 0000 0000 0000 0000 0000 0000 0000 0000
00000080: 0000 0000 0000 0000 0000 0000 0000 0000
00000090: 0000 0000 0000 0000 0000 0000 0000 0000
000000a0: 0000 0000 0000 0000 0000 0000 0000 0000
000000b0: 0000 0000 0000 0000 0000 0000 0000 0000
000000c0: 0000 0000 0000 0000 0000 0000 0000 0000
000000d0: 0000 0000 0000 0000 0000 0000 0000 0000
000000e0: 0000 0000 0000 0000 0000 0000 0000 0000
000000f0: 0000 0000 0000 0000 0000 0000 0000 0000
0.0 0.0 0.0 0.0 0.0 0.0 0.0 0.0
0.0 0.0 0.0 0.0 0.0 0.0 0.0 0.0
0.0 0.0 0.0 0.0 0.0 0.0 0.0 0.0
0.0 0.0 0.0 0.0 0.0 0.0 0.0 0.0
0.0 0.0 0.0 0.0 0.0 0.0 0.0 0.0
0.0 0.0 0.0 0.0 0.0 0.0 0.0 0.0
0.0 0.0 0.0 0.0 0.0 0.0 0.0 0.0
0.0 0.0 0.0 0.0 0.0 0.0 0.0 0.0

running_var f4 [64]
00000000: 0000 803f 0000 803f 0000 803f 0000 803f
00000010: 0000 803f 0000 803f 0000 803f 0000 803f
00000020: 0000 803f 0000 803f 0000 803f 0000 803f
00000030: 0000 803f 0000 803f 0000 803f 0000 803f
00000040: 0000 803f 0000 803f 0000 803f 0000 803f
00000050: 0000 803f 0000 803f 0000 803f 0000 803f
00000060: 0000 803f 0000 803f 0000 803f 0000 803f
00000070: 0000 803f 0000 803f 0000 803f 0000 803f
00000080: 0000 803f 0000 803f 0000 803f 0000 803f
00000090: 0000 803f 0000 803f 0000 803f 0000 803f
000000a0: 0000 803f 0000 803f 0000 803f 0000 803f
000000b0: 0000 803f 0000 803f 0000 803f 0000 803f
000000c0: 0000 803f 0000 803f 0000 803f 0000 803f
000000d0: 0000 803f 0000 803f 0000 803f 0000 803f
000000e0: 0000 803f 0000 803f 0000 803f 0000 803f
000000f0: 0000 803f 0000 803f 0000 803f 0000 803f
1.0 1.0 1.0 1.0 1.0 1.0 1.0 1.0
1.0 1.0 1.0 1.0 1.0 1.0 1.0 1.0
1.0 1.0 1.0 1.0 1.0 1.0 1.0 1.0
1.0 1.0 1.0 1.0 1.0 1.0 1.0 1.0
1.0 1.0 1.0 1.0 1.0 1.0 1.0 1.0
1.0 1.0 1.0 1.0 1.0 1.0 1.0 1.0
1.0 1.0 1.0 1.0 1.0 1.0 1.0 1.0
1.0 1.0 1.0 1.0 1.0 1.0 1.0 1.0
